…
\u0001 (19) = 1 \u0000𝑁rollout 𝐾 \u0001 × \u0012\u0012\u0012𝑁rollout 𝐾 \u0013 − \u0012𝑁neg 𝐾 \u0013\u0013 × 1 + \u0012\u0012𝑁neg 𝐾 \u0013\u0013 × 0 \u0013 (20) = 1 − \u0000𝑁neg 𝐾 \u0001 \u0000𝑁rollout 𝐾 \u0001 . (21) 26 Apply a function to the final input list to generate the output list. Use any preceding inputs and outputs as examples to find what is the function used. All example outputs have been generated using the same function. ### Response Format: - Please output your answer within a code block (```), formatted as a list of numbers, for example: ``` [0, 2, 3] ``` # Examples Example 1: [6, 4] -> [6, 8, 4] Example 2: [8, 3, 2, 0, 9, 7] -> [8, 5, 3, 2, 0, 9, 7] Example 3: [1, 2, 6, 0, 9, 3] -> [1, 5, 2, 6, 0, 9, 3] Example 4: [9, 7, 8] -> [9, 8, 7, 8] Example 5: [1, 9, 6, 5, 0, 3, 8, 4, 7, 2] -> [1, 5, 9, 6, 5, 0, 3, 8, 4, 7, 2] Example 6: [9, 8] -> [9, 8, 8] # Test Problem: [7, 4, 6, 8, 0, 1, 3] -> ```[7, 5, 4, 6, 8, 0, 1, 3]``` Question Ground Truth Figure 15 An example of Enigmata Task. B.2 Derivation of the Standard Deviation of Group Reward 𝜎group = √︂ 1 𝑁rollout × \u0010 𝑁group pos × \u0000 ¯𝑅group −𝑅pos \u00012 + 𝑁group neg × \u0000 ¯𝑅group −𝑅neg \u00012\u0011 (22) = v u u u u u t \u0010\u0000𝑁rollout 𝐾 \u0001 −\u0000𝑁neg 𝐾 \u0001\u0011 × \u0012 1 − (𝑁neg 𝐾) ( 𝑁bootstrap 𝐾 ) −1 \u001
…
 considering both spatial and temporal aspects. Finally, output from each hop is concatenated. Y = m1 ⊕m2 ⊕. . . ⊕mk (4.6) The result of the STGCN block is denoted as Y ∈RT×N×Cout. Here, Cout = ∑k i=1 Ci l refers to a tensors of three dimensions.In our method, we stack multiple STGCN blocks to extract complex spatio-temporal features. Chapter 4. Methodology 42 A single STGCN block is depicted below: =================================================================== Layer (type:depth-idx) Shape of Output Parameters # =================================================================== ￿￿Input: [-1, 3, 33, 60] -- ￿￿Conv2d: 1-1 [-1, 64, 33, 60] 1,792 ￿￿ReLU: [-1, 64, 33, 60] -- ￿￿Concat: [-1, 67, 33, 60] -- ￿￿Conv2d: 1-2 [-1, 64, 33, 60] 4,352 ￿￿ReLU: [-1, 64, 33, 60] -- ￿￿Conv2d: 1-3 [-1, 64, 33, 60] 4,352 ￿￿ReLU: [-1, 64, 33, 60] -- ￿￿Concat: [-1, 128, 33, 60] -- ￿￿Conv2d: 1-4 [-1, 16, 33, 60] 18,448 ￿￿ReLU: [-1, 16, 33, 60] -- ￿￿Dropout2d: 1-5 [-1, 16, 33, 60] -- ￿￿Conv2d: 1-6 [-1, 16, 33, 60] 3,856 ￿￿ReLU: [-1, 16, 33, 60] -- ￿￿Dropout2d: 1-7 [-1, 16, 33, 60] -- ￿￿Conv2d: 1-8 [-1, 16, 33, 60] 4,880 ￿￿ReLU: [-1, 16, 33, 60] -- ￿￿Dropout2d: 1-9 [-1, 16, 33, 60] -- ￿￿Concat: [-1, 48, 33, 60] -- =================================================================== Total parameters: 37,680 Trainable parameters: 37,680 Non-trainable parameters: 0 Total multiplication-additions (M): 74.13 ==================================================================="}
{"text": "60] -- ￿￿Dropout2d: 1-7 [-1, 16, 33, 60] -- ￿￿Conv2d: 1-8 [-1, 16, 33, 60] 4,880 ￿￿ReLU: [-1, 16, 33, 60] -- ￿￿Dropout2d: 1-9 [-1, 16, 33, 60] -- ￿￿Concat: [-1, 48, 33, 60] -- =================================================================== Total parameters: 37,680 Trainable parameters: 37,680 Non-trainable parameters: 0 Total multiplication-additions (M): 74.13 =================================================================== Input size (MB): 0.02 Forward/backward pass size (MB): 3.63 Parameters size (MB): 0.14 Estimated Total Size (MB): 3.79 Chapter 4. Methodolo
…
